model/trained_model.pth (torch, 121668 bytes, 6 tensors)

model.0.weight f4 [128, 157]
0.059024025 0.049103543 -0.068260275 0.052741848 0.22314037 -0.09237482 0.13358866 -0.02233004
0.22943775 0.36413467 0.14774117 0.21190487 0.06840917 0.21805589 0.026184602 0.09219197
0.16546874 -0.11045959 0.028817346 -0.0037937919 0.14595225 -0.033726737 0.084630966 0.20809647
0.16823862 0.20793629 0.074935496 0.20502226 0.1986577 -0.04573129 0.15887609 0.24601454
-0.17452921 0.1271688 0.18260986 0.0084422175 -0.18021779 0.047941733 0.10328473 0.13262634
-0.09833707 -0.0336273 0.044859458 0.17296693 0.43121567 0.048210442 -0.18451634 0.188164
-0.038135715 0.04900059 -0.11722802 0.024931954 -0.054105096 -0.014793591 0.3850968 0.19941822
0.2499508 0.17526646 -0.01767471 -0.062115233 -0.14030597 0.013579323 0.14764994 -0.050214645
-0.1040203 0.021438818 -0.20601888 0.116133474 0.08785653 -0.099742025 0.33127272 0.039435226
0.11458162 0.43975538 0.24512634 0.014125208 0.09930751 -0.13643941 -0.26215667 -0.034506198
0.15001686 -0.08065141 0.07823666 0.32577282 0.18155318 -0.03967202 0.16227855 0.09947976
-0.058398224 0.20599677 0.011797276 -0.03757097 -0.13679191 0.104709096 0.25985464 -0.013211004
0.08891113 -0.123958096 -0.0293978 -0.06887728 0.10567721 0.15263581 0.2739183 0.3076782
0.14326847 -0.035593245 0.1892569 0.12249359 -0.20368692 -0.1510266 -0.031451162 -0.024181312
0.13121429 -0.28760305 -0.09290097 0.0038110947 0.1670749 0.184232 -0.08916443 -0.016823938
0.0029639308 0.029571207 0.08617592 -0.2434598 0.06298552 0.1943641 0.13969558 -0.022299815
0.14281191 0.10206662 0.1830958 -0.058772147 0.020271622 0.16587807 0.252321 0.07687087
0.10848976 -0.0036753772 0.068416476 -0.0814278 -0.2743895 -0.060089365 -0.024182184 -0.13027659
-0.013076172 -0.044235665 0.13619035 0.2003819 0.015253435 -0.09700823 -0.05885062 0.0822968
0.21163458 0.0966482 -0.0924992 0.10656026 0.019196339 0.08773175 -0.063066386 0.042313453
0.026584588 0.06752531 -0.088001005 0.14485821 -0.028315315 0.009563377 0.251262 -0.02730996
-0.19705167 0.122743286 -0.17060377 -0.13151264 0.15321064 -0.041605406 -0.06472425 -0.039749663
0.068443656 0.1935946 -0.026666585 0.12476944 -0.0635867 -0.09931616 0.07963822 0.04562246
0.09443405 -0.039891116 -0.08366475 0.108196944 0.21697712 -0.019542405 0.030465282 -0.1374873
-0.03199395 -0.161444 0.056303784 0.11010025 -0.10793093 -0.010357559 -0.0055780187 0.14678662
0.13171066 0.34661508 -0.03927101 0.004520901 0.2520594 -0.10370852 -0.0074282573 -0.04588481
0.13029177 -0.035488028 -0.06960814 -0.0749813 -0.11369948 0.15528238 0.09193225 0.042924326
-0.06041703 -0.0860847 -0.03609532 0.18866198 -0.018779133 0.033556618 -0.010769902 0.06856068
0.12952521 -0.046525445 -0.089304596 0.18416904 -0.026047684 0.031158384 0.24738167 -0.13976006
0.020314967 -0.049220793 0.0061014574 0.05440964 -0.048720606 0.14214504 -0.1722306 -0.0039124363
0.26590037 -0.16609947 -0.05496013 -0.07519358 0.21202883 -0.01390177 -0.11239655 -0.04718309
-0.05284445 -0.037353825 0.034357384 0.14877677 -0.07311556 -0.07679643 -0.07729256 -0.06987468
00000000: 2dc3 713d cc20 493d 0bcc 8bbd d607 583d
00000010: e97e 643e 022f bdbd 77cb 083e 7ded b6bc
00000020: bbf1 6a3e dc6f ba3e 7649 173e 97fd 583e
00000030: 1b1a 8c3d 0b4a 5f3e 1781 d63c 25cf bc3d
00000040: a370 293e a338 e2bd 5b12 ec3c 44a1 78bb
00000050: 8274 153e 0c25 0abd 0053 ad3d 3e17 553e
00000060: bf46 2c3e 40ed 543e c877 993d 5bf1 513e
00000070: ed6c 4b3e bc50 3bbd 6ab0 223e 3ceb 7b3e
00000080: c9b7 32be 8a38 023e 14fe 3a3e 3a51 0a3c
00000090: 038b 38be 8d5e 443d f286 d33d 33cf 073e
000000a0: f264 c9bd c8bc 09bd 8dbe 373d 3e1e 313e
000000b0: 4dc8 dc3e 5078 453d daf1 3cbe 10ae 403e
000000c0: 3234 1cbd d8b4 483d 3f15 f0bd 193e cc3c
000000d0: 4e9d 5dbd d160 72bc 682b c53e 4a34 4c3e
000000e0: 1af3 7f3e 0d79 333e 8eca 90bc 8b6c 7ebd
000000f0: 5eac 0fbe cf7b 5e3c 8c31 173e dfad 4dbd
00000100: 9808 d5bd 76a0 af3c 9df6 52be 63d7 ed3d
00000110: 20ee b33d 8c45 ccbd 949c a93e d586 213d
00000120: c5a9 ea3d 9e27 e13e 6602 7b3e 6b6d 673c
00000130: bc61 cb3d c6b6 0bbe 6639 86be 5f56 0dbd
00000140: 059e 193e 912c a5bd 8b3a a03d b2cb a63e
00000150: 14e9 393e 217f 22bd 592c 263e 0bbc cb3d
00000160: fa32 6fbd d1f0 523e 5d49 413c 04e4 19bd
00000170: 2e13 0cbe b971 d63d ab0b 853e f872 58bc
00000180: 0a17 b63d bedd fdbd a8d3 f0bc 880f 8dbd
00000190: 4b6d d83d 904c 1c3e 053f 8c3e ff87 9d3e
000001a0: f8b4 123e 39ca 11bd 90cc 413e ebdd fa3d
000001b0: 4e93 50be b8a6 1abe efd2 00bd e317 c6bc
000001c0: 0a5d 063e b540 93be dd42 bebd 8fc3 793b
000001d0: af15 2b3e 50a7 3c3e d79b b6bd 5bd2 89bc
000001e0: 823e 423b 513f f23c 007d b03d 874d 79be
000001f0: 8dfe 803d 6207 473e 5c0c 0f3e 1aae b6bc
00000200: 493d 123e 4e08 d13d 777d 3b3e 10bb 70bd
00000210: ac10 a63c f1db 293e 3830 813e 7a6e 9d3d
00000220: e12f de3d 99de 70bb f01d 8c3d 9ec3 a6bd
00000230: c87c 8cbe 4420 76bd b719 c6bc 3a67 05be
00000240: 713d 56bc 7530 35bd 7c75 0b3e ea30 4d3e
00000250: 8be9 793c 40ac c6bd 590d 71bd 3a8b a83d
00000260: bcb6 583e 7eef c53d 3870 bdbd 443c da3d
00000270: a441 9d3c b4ac b33d f328 81bd df50 2d3d
00000280: ecc7 d93c b64a 8a3d df39 b4bd b655 143e
00000290: 85f5 e7bc b6af 1c3c 6aa5 803e 23b9 dfbc
000002a0: eac7 49be d560 fb3d c1b2 2ebe 40ab 06be
000002b0: 40e3 1c3e 6e6a 2abd 268e 84bd 8bd0 22bd
000002c0: 302c 8c3d aa3d 463e e273 dabc 1f87 ff3d
000002d0: be39 82bd 4566 cbbd 5d19 a33d 9ede 3a3d
000002e0: a466 c13d de64 23bd 6d58 abbd 5c96 dd3d
000002f0: 402f 5e3e 6517 a0bc 5492 f93c 79c9 0cbe
00000300: 170c 03bd 9351 25be cc9e 663d 3d7c e13d
00000310: e40a ddbd c0b2 29bc d0c7 b6bb 3b4f 163e
00000320: 29df 063e 8877 b13e a3da 20bd 1124 943b
00000330: ee0d 813e 2265 d4bd bd68 f3bb b6f1 3bbd
00000340: 356b 053e e55b 11bd b68e 8ebd cc8f 99bd
00000350: 46db e8bd 5802 1f3e fa46 bc3d 6bd1 2f3d
00000360: d977 77bd 2d4d b0bd b0d8 13bd 9b30 413e
00000370: b2d6 99bc aa72 093d 3e74 30bc 8b69 8c3d
00000380: 42a2 043e 7791 3ebd 54e5 b6bd cf96 3c3e
00000390: f461 d5bc de3f ff3c 9f51 7d3e 431d 0fbe
000003a0: 936b a63c be9b 49bd bcee c73b a5dc 5e3d
000003b0: 428f 47bd 788e 113e 385d 30be e533 80bb
000003c0: 1824 883e fb15 2abe e01d 61bd 17ff 99bd
000003d0: 161e 593e 40c4 63bc 2a30 e6bd 0e43 41bd
000003e0: 6c73 58bd 5300 19bd 54ba 0c3d f058 183e
000003f0: 9cbd 95bd 7247 9dbd 904b 9ebd 751a 8fbd

model.0.bias f4 [128]
0.014426819 -0.04193538 0.04884624 0.2048116 0.0678572 -0.028579578 0.07069252 0.25615495
0.2636422 0.0028422324 0.07896468 0.07717343 0.052754022 0.1936238 0.12478834 0.12751701
0.017775917 0.15071355 0.024911419 0.0123005835 0.17765388 0.1680253 0.0357592 0.17509203
-0.031126285 -0.04870032 0.087730326 0.06543879 0.27138993 0.00818 0.1708979 -0.08600893
0.22417085 0.11738358 0.06925769 -0.061257333 0.042446163 0.062043644 0.14574969 -0.05799664
0.0050029536 0.13903959 0.19521272 0.1187203 0.1200175 0.13383085 0.010218882 0.09714986
0.10838319 0.035725262 0.1487843 -0.0452034 0.15098326 -0.021916239 0.20334774 0.4138734
0.18997556 0.22202876 0.06450603 0.0006684941 0.05493912 0.042751785 -0.034229163 0.022526661
0.03816173 0.024150202 0.20136563 -0.087530546 -0.047954563 0.010438104 0.046538178 0.08193165
-0.014957183 0.032739032 -0.00029827925 -0.013081931 0.03921427 0.070305645 -0.072561555 0.033276945
0.081607565 -0.03561747 -0.0066372217 0.25820404 0.003337667 0.011826233 0.10847678 0.068858355
0.087832525 0.049839642 -0.013636756 -0.010420396 0.04774107 -0.024196053 0.120484374 0.03398565
0.14434853 0.07012359 0.22954823 0.34964067 0.04731462 0.111321546 0.23812002 0.017124135
0.122398175 0.11593561 0.10248634 0.08376422 0.013503309 0.04509809 0.018482063 0.2124272
0.236384 0.19731364 0.09825635 0.14850515 0.033900645 -0.034317028 0.07236774 -0.011407016
-0.0412634 0.12100429 0.091693334 0.054665763 0.37121505 0.0041164523 -0.019670174 0.2111269
00000000: 775e 6c3c 6fc4 2bbd ff12 483d 22ba 513e
00000010: b7f8 8a3d b81f eabc 3dc7 903d be26 833e
00000020: 1cfc 863e bf44 3a3b 3cb8 a13d 1a0d 9e3d
00000030: 9a14 583d 5145 463e 0791 ff3d d293 023e
00000040: cd9e 913c a754 1a3e 0813 cc3c 6388 493c
00000050: e6ea 353e d30e 2c3e 3d78 123d 534b 333e
00000060: 8dfc febc fd79 47bd f5ab b33d c604 863d
00000070: 9ff3 8a3e 6805 063c dcff 2e3e 7325 b0bd
00000080: 0b8d 653e cd66 f03d fad6 8d3d f8e8 7abd
00000090: 07dc 2d3d 7a21 7e3d 683f 153e e38d 6dbd
000000a0: d1ef a33b 6560 0e3e d8e5 473e a123 f33d
000000b0: bccb f53d f40a 093e 196d 273c 81f6 c63d
000000c0: 02f8 dd3d a754 123d e95a 183e 3327 39bd
000000d0: 5b9b 1a3e af89 b3bc 643a 503e 37e7 d33e
000000e0: f488 423e 825b 633e bd1b 843d e13d 2f3a
000000f0: d807 613d 7f1c 2f3d e133 0cbd d589 b83c
00000100: 794f 1c3d a5d6 c53c cb32 4e3e 3743 b3bd
00000110: 016c 44bd 9504 2b3c d19e 3e3d c8cb a73d
00000120: f90e 75bc 5d19 063d 5d62 9cb9 9855 56bc
00000130: 249f 203d 68fc 8f3d 279b 94bd 684d 083d
00000140: de21 a73d a0e3 11bd 0d7d d9bb 5233 843e
00000150: c3bc 5a3b d1c2 413c 1329 de3d 9c05 8d3d
00000160: 8ae1 b33d a724 4c3d b36c 5fbc 4fba 2abc
00000170: 248c 433d cd36 c6bc 83c0 f63d 8934 0b3d
00000180: 1ad0 133e f59c 8f3d b10e 6b3e 1a04 b33e
00000190: facc 413d 8dfc e33d bcd5 733e ea47 8c3c
000001a0: e5ab fa3d a66f ed3d 5ce4 d13d 938c ab3d
000001b0: fc3c 5d3c c6b8 383d b267 973c 8486 593e
000001c0: a60e 723e 960c 4a3e a03a c93d bc11 183e
000001d0: 67db 0a3d 0390 0cbd 8a35 943d 7ee4 3abc
000001e0: d003 29bd 19d1 f73d b7c9 bb3d 35e9 5f3d
000001f0: e60f be3e 4ee3 863b 5823 a1bc a631 583e

model.2.weight f4 [64, 128]
0.049465366 0.30067003 -0.033274323 -0.036750246 0.25259426 -0.091998935 0.12516955 -0.35985562
-0.13380858 0.13707459 -0.126687 0.12582721 0.26462406 0.52563286 0.035456803 -0.045952324
1.6656481 0.3427461 -0.09027483 0.123310365 -0.36499402 0.14011528 0.2958292 -0.039251298
0.17613086 0.06525888 0.09870062 0.20694552 0.3758238 -0.036201794 -0.14143181 0.15755798
-0.34046882 0.00268838 -0.19914481 0.121283 0.06315249 0.011981636 0.056995757 0.01753421
0.2810387 0.05845835 0.44305447 0.04231135 0.08415539 -0.0834446 0.041979514 -0.26206642
0.21928076 0.07116609 0.049889933 0.07421813 -0.11808595 0.12335331 0.025956417 -0.117651805
-0.097764045 0.009270901 0.19858071 -0.14201389 0.24103637 0.0011232767 0.36053523 0.17553298
0.09494257 0.23884703 -0.62915945 0.17343314 0.29106545 0.29484305 -0.005057483 0.0045427047
0.05017313 0.23315214 -0.044498578 -0.053341527 0.17685463 0.0989362 0.12680146 -0.007970537
0.12442255 0.060497776 0.023186758 -0.43027264 0.05455433 0.13948566 0.20304783 0.116902985
-0.11426822 0.017023489 0.023434233 -1.18845 0.2709562 0.049133375 0.07321442 0.24862687
-0.093261726 0.107436985 -0.05594416 -0.11179335 0.20864765 -0.01757063 -0.23636732 0.280509
0.1858848 0.033950474 -0.05322935 0.1788054 0.25970915 -0.011785266 0.07264689 -0.04445277
-0.006696997 0.09659727 -0.044583406 0.3154185 0.042989522 0.12714024 0.055359557 0.17814764
0.16455416 0.07319857 -0.09209669 0.12955728 0.008707346 -1.00638 0.2214286 0.30543667
0.028105311 0.21426348 -0.03343625 -0.3287391 -0.27093187 0.12792124 -0.15821414 -0.07902486
-0.10889942 -0.22851567 -0.10787921 0.011462146 -0.20731524 -0.117130056 -0.05773512 0.025894076
-0.20336184 0.16851611 0.16065961 0.16896856 -0.14584558 -0.38082907 0.17872714 0.0040331855
0.13593517 0.11706885 0.045578025 -0.12888204 -0.39237785 0.066587664 0.28170118 0.07564862
0.05979224 -0.2367096 0.17247732 -0.21754496 -0.1485495 -0.18089618 -0.111251526 0.082928956
-0.074374855 0.30399668 -0.3738364 0.026479868 0.21087241 -0.0018174961 0.27805838 -0.33436462
-0.1385501 -0.015283045 0.1862303 0.07215202 0.21321744 0.0015794594 -0.0808544 0.017442986
0.16877261 0.050713636 -0.01988102 0.023544036 -0.13196574 -0.22959928 0.28687283 -0.06478953
-0.043038875 0.16307722 0.004293313 0.050203644 -0.15793121 -0.24978915 0.23500861 0.13057797
-0.030467976 0.09744716 0.059681818 -0.069048055 0.16854744 0.086613454 0.10011966 0.2473079
0.23301621 0.034751125 0.029228266 -0.0050152675 0.030348258 -0.17455797 -0.2996458 0.06324071
0.20417549 0.35179415 0.06481066 0.4165376 -0.11940051 0.12998068 0.06861125 0.034193423
0.1492536 0.23038268 -0.04522862 0.0632644 -0.0057708705 0.11605924 0.47324014 -0.042521376
-0.036677465 0.11371325 -0.037213743 0.16422911 -0.08413354 0.09817319 0.19355868 0.13355687
-0.045887142 0.038792565 -0.19588418 -0.11712501 -0.187053 0.07471575 -0.18070321 0.15724269
0.029570227 -0.106478795 -0.064589016 -0.09111346 -0.26286057 0.25674382 -0.15223941 0.21123007
00000000: 329c 4a3d 6cf1 993e a84a 08bd 6d87 16bd
00000010: 0954 813e f069 bcbd 722c 003e ff3e b8be
00000020: 1e05 09be 485d 0c3e 3dba 01be d9d8 003e
00000030: ce7c 873e e08f 063f 273b 113d 8138 3cbd
00000040: f533 d53f 6b7c af3e 03e2 b8bd 258a fc3d
00000050: 7fe0 babe 617a 0f3e ed76 973e f8c5 20bd
00000060: a65b 343e 73a6 853d 8d23 ca3d 87e9 533e
00000070: fa6b c03e 5548 14bd 80d3 10be e156 213e
00000080: ee51 aebe 882f 303b 9eec 4bbe 3963 f83d
00000090: 1856 813d a04e 443c 6274 693d e7a3 8f3c
000000a0: 4ee4 8f3e 0672 6f3d 09d8 e23e ab4e 2d3d
000000b0: a959 ac3d 01e5 aabd b6f2 2b3d 922d 86be
000000c0: 238b 603e 87bf 913d 6359 4c3d adff 973d
000000d0: 0cd7 f1bd a9a0 fc3d 8da2 d43c 6ef3 f0bd
000000e0: 8438 c8bd fae4 173c be58 4b3e 176c 11be
000000f0: 3dd2 763e e93a 933a 1398 b83e ebbe 333e
00000100: 4071 c23d 5194 743e 9810 21bf 7598 313e
00000110: 8806 953e abf5 963e 3eb9 a5bb f8da 943b
00000120: 5782 4d3d 6fbf 6e3e 2444 36bd a57c 5abd
00000130: 6119 353e 109f ca3d 3ed8 013e db96 02bc
00000140: 40d1 fe3d 84cc 773d 28f2 bd3c b24c dcbe
00000150: 5c74 5f3d 54d5 0e3e c5eb 4f3e d56a ef3d
00000160: 7505 eabd d874 8b3c 26f9 bf3c 211f 98bf
00000170: c5ba 8a3e 1440 493d 71f1 953d 0b98 7e3e
00000180: 0100 bfbd ec07 dc3d b425 65bd e9f3 e4bd
00000190: bba7 553e 48f0 8fbc 460a 72be e09e 8f3e
000001a0: 9658 3e3e a70f 0b3d 0507 5abd c318 373e
000001b0: 99f8 843e fd16 41bc e5c7 943d 1c14 36bd
000001c0: 7c72 dbbb cad4 c53d 179d 36bd 897e a13e
000001d0: c815 303d 0d31 023e b4c0 623d 566c 363e
000001e0: e380 283e 22e9 953d 309d bcbd aaaa 043e
000001f0: 42a9 0e3c 0fd1 80bf 2ebe 623e 3262 9c3e
00000200: 1c3d e63c e367 5b3e 73f4 08bd 7e50 a8be
00000210: 95b7 8abe c9fd 023e e302 22be c9d7 a1bd
00000220: a906 dfbd 0300 6abe c6ef dcbd bacb 3b3c
00000230: 724a 54be e2e1 efbd a97b 6cbd d01f d43c
00000240: 163e 50be 7d8f 2c3e f483 243e 1806 2d3e
00000250: 8b58 15be 07fc c2be 3f04 373e d028 843b
00000260: 9732 0b3e cbc1 ef3d 06b0 3a3d a7f9 03be
00000270: c0e5 c8be 1d5f 883d 233b 903e aaed 9a3d
00000280: b5e8 743d 0064 72be e59d 303e 1bc4 5ebe
00000290: 5c1d 18be d93c 39be d7d7 e3bd a8d6 a93d
000002a0: d851 98bd 74a5 9b3e 7c67 bfbe 4fec d83c
000002b0: f0ee 573e 0d39 eeba ab5d 8e3e d731 abbe
000002c0: 14e0 0dbe bd65 7abc 28b3 3e3e 70c4 933d
000002d0: ac55 5a3e dd05 cf3a fe96 a5bd 98e4 8e3c
000002e0: bad2 2c3e 1ab9 4f3d 85dd a2bc 6cdf c03c
000002f0: 0722 07be 131c 6bbe ffe0 923e 60b0 84bd
00000300: 8849 30bd b7fd 263e ebae 8c3b 56a2 4d3d
00000310: b8b8 21be bac8 7fbe 19a6 703e 3bb6 053e
00000320: fa97 f9bc 6092 c73d ec74 743d 1169 8dbd
00000330: b397 2c3e 6562 b13d 890b cd3d 483e 7d3e
00000340: cd9b 6e3e 3257 0e3d 1e70 ef3c 1d57 a4bb
00000350: e99c f83c 53bf 32be 2d6b 99be 5884 813d
00000360: 6113 513e 5d1e b43e 74bb 843d 6b44 d53e
00000370: 4188 f4bd a819 053e 0e84 8c3d 670e 0c3d
00000380: f0d5 183e 70e9 6b3e a541 39bd c490 813d
00000390: 9219 bdbb 78b0 ed3d 884c f23e e52a 2ebd
000003a0: 1c3b 16bd 7ee2 e83d 706d 18bd ad2b 283e
000003b0: 354e acbd 070f c93d 3f34 463e 22c3 083e
000003c0: 28f4 3bbd f4e4 1e3d dd95 48be 3ddf efbd
000003d0: d28a 3fbe 9204 993d 430a 39be 3a04 213e
000003e0: 433d f23c 8e11 dabd 3f47 84bd b299 babd
000003f0: a995 86be ed73 833e a6e4 1bbe b24c 583e

model.2.bias f4 [64]
-0.10600812 0.15526019 -0.05002836 -0.070997864 0.19658534 0.06927638 -0.047470603 0.17853722
-0.053434856 -0.08196425 -0.036893692 0.25040781 -0.09351242 -0.008774309 -0.07268133 -0.07060946
0.0150957145 -0.0853187 -0.044529013 -0.065384276 -0.050199367 0.007115035 -0.013335463 -0.045796435
-0.041188445 -0.021420252 -0.06459172 -0.14669603 -0.081222855 -0.05548173 -0.002648155 -0.087083615
0.07862568 -0.06750989 -0.057849023 0.019081242 0.033427928 -0.12335555 0.037845146 0.06660962
0.102639936 -0.112713665 -0.047490228 0.03113751 0.023393638 0.11447786 -0.057352547 -0.071846895
-0.05609692 -0.19179733 -0.046543486 -0.024959942 -0.06921674 -0.08568266 -0.060597874 -0.13081346
-0.06523581 0.052966695 -0.047338385 0.01989218 -0.10909956 -0.097651675 -0.04841328 -0.055873886
00000000: c91a d9bd 87fc 1e3e 8aea 4cbd 5467 91bd
00000010: ab4d 493e c6e0 8d3d 8970 42bd 76d2 363e
00000020: 82de 5abd dfdc a7bd d71d 17bd 7435 803e
00000030: 7183 bfbd 1fc2 0fbc f3d9 94bd b19b 90bd
00000040: 0454 773c 92bb aebd 0e64 36bd 31e8 85bd
00000050: da9d 4dbd 3d25 e93b fc7c 5abc 0b95 3bbd
00000060: 37b5 28bd 8679 afbc aa48 84bd 7c37 16be
00000070: 2b58 a6bd cf40 63bd ab8c 2dbb e558 b2bd
00000080: 8006 a13d a042 8abd 19f3 6cbd 4450 9c3c
00000090: b9eb 083d d6a1 fcbd 8303 1b3d a06a 883d
000000a0: e334 d23d 6cd6 e6bd 1d85 42bd 1714 ff3c
000000b0: 04a4 bf3c 5e73 ea3d 81ea 6abd 7724 93bd
000000c0: e2c5 65bd 8566 44be 62a4 3ebd cb78 ccbc
000000d0: 82c1 8dbd 647a afbd 7a35 78bd f7f3 05be
000000e0: 5a9a 85bd 9bf3 583d e5e5 41bd edf4 a23c
000000f0: 976f dfbd 9afd c7bd 014d 46bd 04dc 64bd

model.4.weight f4 [10, 64]
-2.2210162 -2.8205564 -0.095791526 -0.007907943 -4.004088 -1.505979 -3.458606 -2.1438372
0.41705278 -0.029804252 -1.4997386 -3.4856725 -0.44848773 -0.7249427 -1.4277422 0.09147077
-2.7619264 -1.2433122 -4.8684583 0.07446606 0.242251 -1.0290821 -4.2238426 0.051220763
-2.2537239 -2.635269 0.037812088 -2.8872876 0.05128589 -0.12788726 -4.5826535 -0.09654897
-4.2736735 -0.12806799 -1.6654373 0.033799715 -2.7197273 0.1417174 -3.785117 -4.1630197
-2.590453 -0.086870804 -0.52966726 0.22890964 -2.8430684 -3.7303388 -3.1814826 0.019616198
-0.83360434 1.7189534 0.03400902 -2.050645 -1.3449652 -0.8354807 -2.138249 0.15496251
-0.44127145 -4.7929177 -1.4932268 -2.9371798 -0.7262048 -1.8215009 -0.25948036 0.13161069
-3.5577059 -4.3139434 -0.30901495 0.09836592 -2.650617 -2.7193756 -4.0002384 -2.8469098
0.19335946 0.08428376 -1.0490578 -2.8150446 -0.7328786 -1.1879094 -1.9786406 -0.39616162
-4.393811 -0.89642894 -4.3105392 0.047829445 0.16891141 -0.9917594 -2.9073608 -0.09379052
-1.8991946 -3.860128 -0.03753416 -2.490683 -0.10420518 -1.1502914 -4.4132967 0.019542903
-4.137034 -1.0706811 -1.6670125 -0.86511576 -3.742542 -0.15431337 -2.8215482 -4.6809006
-2.9190264 -0.46252227 0.24597938 -0.13980338 -4.478235 -4.0096574 -4.3940477 0.049530264
-1.0929619 2.59116 0.29893553 -2.686459 -1.3688855 0.17890525 -1.3483838 -0.3316789
-1.0629032 -5.167027 -0.6542166 -2.8167791 -1.826973 -0.05496445 0.15715782 -0.3974636
0.07728407 0.16919449 -0.05971847 0.05227112 -0.017661437 -0.21609668 0.16575061 -0.053313967
-0.0043355655 -0.013005462 -0.1250252 -0.12365687 -0.30980733 -0.26365927 -0.13206437 0.13061854
-0.031368896 -0.14924839 0.16396514 -0.096642226 0.06677396 -0.01701785 0.076810665 -0.16717216
0.18629873 0.031718355 0.02646992 0.19396314 0.11423428 0.057821896 0.08574242 0.07597417
0.20642662 0.10584993 0.16505362 -0.3681614 -0.06904653 -0.2681508 0.092513956 -0.13279112
0.0148859415 0.15969957 -0.39813003 -0.5356246 -0.24238795 -0.121109575 0.18667987 0.06380376
0.10513926 -0.38130164 -0.13423535 0.12919793 -0.025808765 0.09907139 0.039100025 -0.2327967
0.18808724 0.14481841 0.09116014 0.15766935 0.1479029 0.08598739 0.04390824 0.06748499
-2.806969 -3.5368123 0.5358881 -0.09369234 -4.1159997 -1.6074454 -3.040724 -3.073534
-1.6296656 -0.050200347 -2.4610898 -3.990477 0.6819452 -1.5195897 -0.61928815 -0.67153263
-1.7926058 -0.8472422 -4.988495 -0.019142376 -0.6712468 -2.3741438 -5.122057 -0.02660348
-3.447358 -2.4718275 -0.08624469 -3.6863978 -0.04027864 -0.16245198 -3.9762537 0.014733494
-3.328332 -0.03234106 -2.0136006 -0.03162552 -3.2696187 1.0125719 -4.9423137 -4.5481224
-2.8136427 0.15923831 0.12909123 0.38444623 -2.8975873 -3.5832016 -3.0469372 -0.07494159
-2.4374223 0.98558044 -0.9205116 -0.7696433 -0.18393445 -1.2664244 -2.669122 0.23711413
-0.6416407 -3.6760209 -0.7423123 -2.4228983 -0.65628 -2.470683 -1.5484803 0.73444295
00000000: 2125 0ec0 ff83 34c0 592e c4bd 5190 01bc
00000010: 7d21 80c0 ebc3 c0bf cd59 5dc0 a134 09c0
00000020: f187 d53e 0c28 f4bc 6ff7 bfbf 4215 5fc0
00000030: 2fa0 e5be d895 39bf 42c0 b6bf 0755 bb3d
00000040: 67c3 30c0 db24 9fbf 69ca 9bc0 a981 983d
00000050: a510 783e f6b8 83bf b829 87c0 ddcc 513d
00000060: 033d 10c0 3fa8 28c0 d9e0 1a3d 52c9 38c0
00000070: 2711 523d e1f4 02be 19a5 92c0 77bb c5bd
00000080: efc1 88c0 4124 03be 0d2d d5bf 9271 0a3d
00000090: 0310 2ec0 5e1e 113e 5b3f 72c0 7537 85c0
000000a0: fbc9 25c0 52e9 b1bd 4698 07bf 4a67 6a3e
000000b0: d5f4 35c0 dfbd 6ec0 699d 4bc0 26b2 a03c
000000c0: 1867 55bf aa06 dc3f 0b4d 0b3d c53d 03c0
000000d0: d227 acbf 10e2 55bf 12d9 08c0 7eae 1e3e
000000e0: 55ee e1be 955f 99c0 0e22 bfbf c1fa 3bc0
000000f0: 8fe8 39bf f126 e9bf 9cda 84be f4c4 063e
00000100: 74b1 63c0 d30b 8ac0 3537 9ebe 1274 c93d
00000110: b5a3 29c0 400a 2ec0 f401 80c0 c533 36c0
00000120: 0600 463e f79c ac3d 8747 86bf b129 34c0
00000130: ef9d 3bbf 6a0d 98bf 1844 fdbf b2d5 cabe
00000140: 1a9a 8cc0 5e7c 65bf f0ef 89c0 cfe8 433d
00000150: 1df7 2c3e f2e3 7dbf 3312 3ac0 3f15 c0bd
00000160: cf18 f3bf 560c 77c0 6bbd 19bd 5a67 1fc0
00000170: 8769 d5bd c03c 93bf ba39 8dc0 7018 a03c
00000180: 9562 84c0 140c 89bf aa60 d5bf 3a78 5dbf
00000190: cf85 6fc0 5304 1ebe 3f94 34c0 f0c9 95c0
000001a0: 54d1 3ac0 b8cf ecbe 05e2 7b3e 9e28 0fbe
000001b0: b34d 8fc0 1d4f 80c0 0a9c 8cc0 3fe0 4a3d
000001c0: 2de6 8bbf 91d5 2540 140e 993e f2ee 2bc0
000001d0: a437 afbf f032 373e d797 acbf d1d1 a9be
000001e0: 360d 88bf 4958 a5c0 bd7a 27bf 1c46 34c0
000001f0: 40da e9bf 6722 61bd fbed 203e 5980 cbbe
00000200: 1c47 9e3d 5241 2d3e 5b9b 74bd 3e1a 563d
00000210: b8ae 90bc 7348 5dbe 87ba 293e bf5f 5abd
00000220: 5c11 8ebb dc14 55bc 9b06 00be d03f fdbd
00000230: 119f 9ebe 59fe 86be e23b 07be dec0 053e
00000240: ac7c 00bd 92d4 18be 7ae6 273e 5cec c5bd
00000250: c9c0 883d 0569 8bbc e94e 9d3d 2e2f 2bbe
00000260: 18c5 3e3e 1beb 013d 72d7 d83c 469e 463e
00000270: aaf3 e93d a7d6 6c3d b999 af3d 5898 9b3d
00000280: 8061 533e d9c7 d83d d103 293e a77f bcbe
00000290: 4468 8dbd 104b 89be f577 bd3d 65fa 07be
000002a0: 2ae4 733c 4988 233e b3d7 cbbe b21e 09bf
000002b0: 8c34 78be 4c08 f8bd 0229 3f3e 8cab 823d
000002c0: 4153 d73d f839 c3be fe74 09be 764c 043e
000002d0: e76c d3bc f1e5 ca3d 5927 203d 4262 6ebe
000002e0: f199 403e 474b 143e 2bb2 ba3d 1374 213e
000002f0: dc73 173e 281a b03d 20d9 333d 9235 8a3d
00000300: 61a5 33c0 225b 62c0 f62f 093f c5e1 bfbd
00000310: 45b6 83c0 c5c0 cdbf 399b 42c0 c8b4 44c0
00000320: e298 d0bf e19e 4dbd 7f82 1dc0 fa63 7fc0
00000330: f693 2e3f ea81 c2bf ab89 1ebf 90e9 2bbf
00000340: 1b74 e5bf dde4 58bf c0a1 9fc0 79d0 9cbc
00000350: d5d6 2bbf f9f1 17c0 e4e7 a3c0 8bef d9bc
00000360: 83a1 5cc0 6c32 1ec0 0ea1 b0bd f1ed 6bc0
00000370: 37fb 24bd d059 26be f17a 7ec0 c164 713c
00000380: 6403 55c0 0f78 04bd d5de 00c0 c389 01bd
00000390: 6f41 51c0 f59b 813f 6f27 9ec0 388a 91c0
000003a0: b912 34c0 5e0f 233e 7e30 043e 23d6 c43e
000003b0: 1272 39c0 2d53 65c0 0501 43c0 fa7a 99bd
000003c0: bafe 1bc0 004f 7c3f a6a6 6bbf 5807 45bf
000003d0: 5059 3cbe 321a a2bf e5d2 2ac0 0cce 723e
000003e0: 9142 24bf ed43 6bc0 2e08 3ebf c410 1bc0
000003f0: f701 28bf ac1f 1ec0 9a34 c6bf 7404 3c3f

model.4.bias f4 [10]
-4.9920545 -4.9503984 -0.035351247 -4.7349973 -4.669595 -0.093477756 0.0068664774 -4.768779
-4.8118634 -4.409382
00000000: e9be 9fc0 aa69 9ec0 78cc 10bd 1985 97c0
00000010: 526d 95c0 4471 bfbd 3000 e13b d699 98c0
00000020: c9fa 99c0 a819 8dc0
